…
266/274 [============================>.] - ETA: 0s - loss: 2.2716 - accuracy: 0.4737\
273/274 [============================>.] - ETA: 0s - loss: 2.2721 - accuracy: 0.4737\
274/274 [==============================] - 2s 9ms/step - loss: 2.2726 - accuracy: 0.4735\
Model: "sequential_1"\
_________________________________________________________________\
 Layer (type)                Output Shape              Param #   \
=================================================================\
 embedding_1 (Embedding)     (None, 100, 50)           282700    \
                                                                 \
 lstm_1 (LSTM)               (None, 100, 100)          60400     \
                                                                 \
 dropout (Dropout)           (None, 100, 100)          0         \
                                                                 \
 lstm_2 (LSTM)               (None, 100, 100)          80400     \
                                                                 \
 dropout_1 (Dropout)         (None, 100, 100)          0         \
                                                                 \
 lstm_3 (LSTM)               (None, 150)               150600    \
                                                                 \
 dropout_2 (Dropout)         (None, 150)               0         \
                                                                 \
 dense_2 (Dense)             (None, 128)               19328     \
                                                                 \
 dense_3 (Dense)             (None, 5654)              729366    \
                                                                 \
=================================================================\
Total params: 1,322,794\
Trainable params: 1,322,794\
Non-trainable params: 0\
_________________________________________________________________\
None\
Epoch 1/50\
\
  1/274 [..............................] - ETA: 20:24 - loss: 8.6401 - accuracy: 0.0000e+00\
…
