…
266/274 [============================>.] - ETA: 0s - loss: 0.9036 - accuracy: 0.7771\
273/274 [============================>.] - ETA: 0s - loss: 0.9057 - accuracy: 0.7764\
274/274 [==============================] - 3s 9ms/step - loss: 0.9060 - accuracy: 0.7762\
Model: "sequential_1"\
_________________________________________________________________\
 Layer (type)                Output Shape              Param #   \
=================================================================\
 embedding_1 (Embedding)     (None, 100, 50)           282700    \
                                                                 \
 lstm_1 (LSTM)               (None, 100, 100)          60400     \
                                                                 \
 dropout (Dropout)           (None, 100, 100)          0         \
                                                                 \
 lstm_2 (LSTM)               (None, 100, 100)          80400     \
                                                                 \
 dropout_1 (Dropout)         (None, 100, 100)          0         \
                                                                 \
 lstm_3 (LSTM)               (None, 150)               150600    \
                                                                 \
 dropout_2 (Dropout)         (None, 150)               0         \
                                                                 \
 dense_2 (Dense)             (None, 128)               19328     \
                                                                 \
 dense_3 (Dense)             (None, 5654)              729366    \
                                                                 \
=================================================================\
Total params: 1,322,794\
Trainable params: 1,322,794\
Non-trainable params: 0\
_________________________________________________________________\
None\
Epoch 1/100\
\
  1/274 [..............................] - ETA: 7:46 - loss: 0.8771 - accuracy: 0.7812\
…
